mnist_model.pth (torch, 284549 bytes, 10 tensors)

conv1.weight f4 [6, 1, 3, 3]
00000000: 97fe 043f 6401 e83b fe3c 88be 3973 e03c
00000010: f5d4 10bf 6552 3c3d 57b2 06bf eae5 65be
00000020: 0b4b c3bd 8349 f2bd 593c 5d3e f405 843b
00000030: a36b 10bf b7f0 f6be d283 20bf 1fdb c5bb
00000040: 9f7e 26be 0700 dbbd 0d20 3c3e c8fb 003f
00000050: 6926 ec3d e069 19bd 2c12 f03d e455 933e
00000060: 1dfe f43e 1635 e93e c33f 41bc e74c 7abe
00000070: eb88 12be 8115 853e 3901 24be 1905 6dbe
00000080: 3b0b c33e 984f c0bd e667 1abe 0894 963e
00000090: 41cb 86be 6275 843d 4a0e 9c3e 2275 f7be
000000a0: 0913 02be 3712 d43e c89d f0be d214 aa3d
000000b0: b25a 953e 3b1a 90bd a881 4dbe feaf c53e
000000c0: b0d0 a13d 068a 503e 8c15 ff3e f849 ad3d
000000d0: 9527 f33e b3be de3e
0.51950973 0.007080244 -0.26609033 0.027398692 -0.56574947 0.045977015 -0.52615875 -0.22450987
-0.09535798 -0.118304275 0.21605052 0.00402903 -0.5641424 -0.48230526 -0.6270114 -0.006038084
-0.1625924 -0.106933646 0.18371601 0.5038419 0.11530764 -0.037454486 0.11722216 0.28776467
0.47850123 0.45548314 -0.011794987 -0.24443398 -0.14310043 0.2599297 -0.16016091 -0.23146476
0.38094506 -0.09390181 -0.15078697 0.29409814 -0.26326945 0.064677015 0.30479652 -0.48331553
-0.12702574 0.41420147 -0.46995378 0.083047524 0.29170758 -0.07036253 -0.20068991 0.38610834
0.07901132 0.20365152 0.49821126 0.08461374 0.47491136 0.43504867

conv1.bias f4 [6]
00000000: a90f f73e 82ce f13e fca4 673b f316 b6bd
00000010: dd94 4c3e 631f a0ba
0.48254135 0.47227865 0.003534614 -0.08891096 0.19978662 -0.0012216385

conv2.weight f4 [16, 6, 3, 3]
00000000: 5464 b4bd e1d8 ea3d e403 aebd 0119 3dbd
00000010: 4ea5 133e 790b b53d 0410 c9bb eea3 bc3d
00000020: 2048 c93d c0db cdbd 662d 39bd 85c3 d63d
00000030: 2265 03be 52a2 703b f116 093e 04c4 5a3d
00000040: 390f 253e 4970 483d 7936 403e eb8a b7bd
00000050: 2a02 d3be e52f 7a3e 5bdb f0bc 7ec7 d2be
00000060: ef86 a8bd 3636 b6be 42e5 22be 6ced f53d
00000070: d6ef a9be e387 f8bc bf43 1f3e 9859 80be
00000080: 2a0c a6bd 338c fbbc ca61 f93d fc7d 98bb
00000090: 39a2 303e 615b 00be cf45 e43d a2e1 89bd
000000a0: 28fe f23c af04 8d3d 1327 913d 3e9c 0e3e
000000b0: e55e 243e 0a49 dcbc 245c 46be c94c dabe
000000c0: e6d0 5e3e dca8 dabe 80e7 0ebe 3a12 7bbe
000000d0: 88b2 acbe f1a7 8bbb 44c1 5d3d 61ba 123e
000000e0: 7ba5 05bd e25d 0d3e b53b 573d 3d79 22bc
000000f0: 83e8 403e af83 d53d 2b67 2bbe ce7d ccbd
00000100: 92a6 94bc d1bb e93d 5d7b f43c 1823 dabd
00000110: 39f5 9cbc d803 173e ec44 f53d e63f edbc
00000120: 65a7 813e e0f0 24bc 02ff b8be b49b 6cbc
00000130: af8a d2be d7c5 7bbc 9746 afbe b50d babe
00000140: fc1e dc3d 3c3a 4b3e 46f1 94be 0895 ef3d
00000150: 9e72 1d3e e10b c73d 4599 6b3e 9a02 1fbe
00000160: 68a8 6c3e 88df e83d e993 eebd 8542 07be
00000170: 89a6 133e a680 c53c bcb7 943d d277 723e
00000180: 4abf 133e f16b 57bc f4ff 763e e2d8 5f3c
00000190: 132d b3be b727 69be 3f51 353d b11f 54be
000001a0: ce4c 803d 9058 dcbe 5c42 e0bd f193 ee3d
000001b0: 9fd7 473e 076c 173e 873a 6fbe 06f3 44be
000001c0: 7b1b 9cbe 9b67 d9bd 6fe9 01be 6ed6 953e
000001d0: e08b 923e b9cd 073e 9530 5e3b 3feb f8bd
000001e0: 6dbb 23be 8645 dcbe a800 dbbe daea 24be
000001f0: b8e0 1fbd 44d4 bdba 6954 c4be a418 aebd
00000200: 8907 233e d84b 243e ed07 3f3e 19ab b13d
00000210: 0eb3 4e3e 5751 c9bd e1be 10bd 4951 ebbd
00000220: de25 193d 588d 203d 453e 85bd 415e 353d
00000230: cce0 88be 1f42 85be 7b40 8cbe b236 01be
00000240: d474 aebc a623 a6bd 2e3b 233e 7be7 973c
00000250: 4301 9cbd 1176 b9be f470 8bbe 9a05 c4be
00000260: 6816 d4bd a277 16be e878 d13d 3a92 003e
00000270: d803 933e 36c1 ae3e 8414 163e 8032 333e
00000280: 71e2 5bbe 7e33 7cbe 3e27 bcbd 7d66 ba3d
00000290: 56ea 403e 1cf1 373e 8c87 0a3d 6c3e 86bb
000002a0: 6eb3 143e b140 673d 5413 13bd 1284 f83d
000002b0: dbe5 5e3e 915b 843d 7fe1 053e 0577 1e3e
000002c0: 0231 30be 287d c63c b726 f53c e8d6 bc3d
000002d0: cda6 8ebd 8a3a 6fbe b278 83be b08d 72bd
000002e0: a21f 93be b750 183e 797f 07be 77a5 85bd
000002f0: e68d 9c3d ee02 86be 2260 1a3e 17b5 7b3e
00000300: b3b5 88be d579 8a3e 096d 243e 99bd fe3d
00000310: 4f5e 283e 9baa 6f3e aaa8 9fbd 1cde 9cbd
00000320: 2520 b83d 3791 c7bc 8954 9c3d 1a74 963b
00000330: 5eb7 d63d a121 183d 3a0d 2c3d aa13 05be
00000340: 078a 79be 96e8 1e3e 515d 7fbe 7411 853c
00000350: 0ef4 383e a15b 90be fd37 d0bd 181e d4bd
00000360: 951c 333c 9e74 2ebe 1953 b3be d540 a33d
00000370: bfa8 12be 9aad 6e3e c8ab cfbd b165 1c3e
00000380: e6f4 4a3e 0a50 e2bd 1b57 83be 74f0 2fbe
00000390: 3715 b5bd f9ed e6be d9f1 4fbd e849 acbe
000003a0: 9b04 abbe 89e4 b3bd e1eb a6bd 8994 273e
000003b0: 0c48 ea3c 2d01 f1bd dd03 c33d 599a 04be
000003c0: 8b1a e73d e13d b13d c55e 72be da80 223d
000003d0: e992 4a3e 15d5 44bd 4ef0 a73e 275e b23e
000003e0: dbae 5fbe 9f4a b73e e3b6 993e 90c9 98be
000003f0: 47bf 90bd 8cb0 9a3d fd68 0bbe 5399 793e
-0.088081986 0.114671476 -0.08496836 -0.046166424 0.14418527 0.08840079 -0.0061359424 0.092109546
0.0982821 -0.100516796 -0.04520931 0.10486511 -0.12831548 0.0036717844 0.13387658 0.05340959
0.16119088 0.04893521 0.1877078 -0.089620434 -0.4121259 0.24432333 -0.029401472 -0.41167825
-0.082288615 -0.35588235 -0.15907767 0.12008175 -0.33190793 -0.030338233 0.15553187 -0.25068355
-0.08107789 -0.0307065 0.12176855 -0.0046536904 0.17249383 -0.12534858 0.111461274 -0.06732489
0.029662207 0.06885659 0.07087531 0.13926789 0.16051824 -0.026890296 -0.19371086 -0.42636707
0.21759376 -0.42706954 -0.13955498 -0.24518672 -0.3372996 -0.0042619635 0.05413939 0.1432891
-0.032628518 0.13805345 0.052547175 -0.009916601 0.18838696 0.10425507 -0.16738574 -0.09984933
-0.018145833 0.11412776 0.02984398 -0.10651225 -0.0191599 0.1474756 0.119760364 -0.028961133
0.25323024 -0.010067195 -0.36132056 -0.014441419 -0.41121432 -0.015366993 -0.34233543 -0.36338583
0.10748097 0.19846433 -0.29090327 0.11698347 0.15375754 0.097190626 0.23007686 -0.15528336
0.23111117 0.1137076 -0.116493054 -0.13208969 0.14418997 0.024109196 0.07261607 0.2367852
0.1442844 -0.013148294 0.24121076 0.013662549 -0.34995326 -0.22769056 0.044266935 -0.20715214
0.06264649 -0.43036318 -0.10950157 0.11649311 0.19515847 0.14787303 -0.2336217 -0.19233331
-0.30489716 -0.10615464 -0.12686704 0.2926516 0.2862234 0.1326207 0.003390347 -0.12154245
-0.15989466 -0.43021792 -0.42773938 -0.16105214 -0.039032668 -0.0014482816 -0.3834565 -0.085007936
0.15920843 0.16044557 0.18655367 0.086752124 0.20185491 -0.098299675 -0.035338286 -0.11490113
0.03738963 0.039197296 -0.065060176 0.04427934 -0.26734006 -0.2602701 -0.27392945 -0.12618521
-0.021295942 -0.08112268 0.15940544 0.018542996 -0.07617428 -0.3622289 -0.27234614 -0.38285524
-0.10355836 -0.14694074 0.10228139 0.12555781 0.2871387 0.34131783 0.14656264 0.17499733
-0.214731 -0.24629018 -0.09187172 0.09101579 0.18839392 0.1796307 0.033820674 -0.0040967967
0.14521572 0.05645818 -0.035907105 0.121345654 0.2176737 0.064627774 0.13074301 0.1547509
-0.17206195 0.024229601 0.029925687 0.092206776 -0.069654085 -0.23362175 -0.2567802 -0.059217155
-0.2873507 0.1487454 -0.1323222 -0.065257005 0.076442525 -0.2617411 0.15075734 0.24580799
-0.26701126 0.27046075 0.16057219 0.12438507 0.16442226 0.23404925 -0.07795842 -0.076595515
0.08990506 -0.024361236 0.07633311 0.004591477 0.10484193 0.037141446 0.0420048 -0.12995782
-0.2436906 0.15518412 -0.24937941 0.016243674 0.1806185 -0.28194907 -0.10166929 -0.103573024
0.010932107 -0.17036673 -0.35024336 0.0797135 -0.14322184 0.23308411 -0.101401865 0.15273167
0.19819984 -0.110504225 -0.25652394 -0.1718157 -0.08841937 -0.45103434 -0.050767753 -0.33650136
-0.3340195 -0.08783824 -0.08150459 0.16365255 0.028598808 -0.117678024 0.09522221 -0.12949504
0.112843595 0.086543806 -0.23668964 0.039673664 0.19782604 -0.048054773 0.32800525 0.34837458
-0.21844046 0.3579912 0.30022344 -0.2984128 -0.07067733 0.07553205 -0.13614269 0.24374895

conv2.bias f4 [16]
00000000: 0e2b c83d 35be c339 0bae 073d 0770 1ebe
00000010: cc1a 53bd 23f4 0e3e 088b 52bc 5741 d8bd
00000020: e447 863d 1d3e 0ebe 73ad cbbd e5ac cb3d
00000030: 3db9 db3d 7a29 95bd 7eed 803c a27f 043d
0.09773837 0.00037335014 0.033124965 -0.15472423 -0.051539227 0.13960318 -0.01285053 -0.105593376
0.06556681 -0.13890882 -0.09945192 0.099450864 0.10728691 -0.07283302 0.015738245 0.032348283

layer1.weight f4 [128, 400]
00000000: 8112 d5bc 1dbd 893d 2017 033e cd26 d03d
00000010: 215d 1c3d 2cba 19bb 1448 103d e821 2c3d
00000020: 02dd 65bd 983a cbbc 08d9 ea3c 2c3b 4b3d
00000030: ce19 87bd c927 1fbe 0d43 85bb 93fb 503d
00000040: b746 cc3c 6a88 70bd bb9b d1bd a900 3e3d
00000050: db39 663d 2f7e 67bd 6936 5dbd c70c 4e3d
00000060: d0d3 403c 9054 993c de5c 373d 6b64 d23d
00000070: c57b d43d 4856 c33b 2b0b 553d 37f5 0a3d
00000080: fb89 ca3d d7c7 613d 1ba6 2ebd 668b 1b3d
00000090: 0f58 54bd 1d32 38be 8c36 c2bc 9d98 77bd
000000a0: 0701 d03c 13cd cb3c 244b a53b 867c b4bd
000000b0: dfe2 52bb 8ee5 ce3c 6c24 cbbd a147 52be
000000c0: 6be8 d5bc 36ac 1f3c c350 0bbe cec5 ad3c
000000d0: b5ac f83c 0057 3c3d c879 0f3d ed70 03be
000000e0: 591a f7bd 57c1 2b3c f344 b13d 4dba a63d
000000f0: a566 9c3c f8a6 b5bd cb2d 4ebd 2962 433d
00000100: bea1 af3d 2325 fc3c baa6 b5bd 7b80 28bd
00000110: ac21 66bd 55c2 ebbd 2b31 7fbd 4f9a 27bd
00000120: 72bc 9ebd 9d8d b53a d3b4 aebd f729 493d
00000130: 00fb 93bb 5e07 553d fc5c fb3d 85c0 883d
00000140: 6139 623c 4e68 4dbc da92 4b3d 3ec7 783d
00000150: ab4a 62bd fd7d 82bc 95c3 12bc 1602 2cbd
00000160: fba1 78bd 9589 a1bd e30e d23c c60b 4e3a
00000170: 9a26 373d 95ee d6bd 37b0 cebb 2cf5 9b3d
00000180: 8354 a73d 03a4 c4bd eff6 52bd 9eb0 a03d
00000190: 2c61 e33d f7f0 383e 8ee4 cc3d 4dde 23bd
000001a0: c56a 753c d404 4dbd daa8 563d b31f 2e3d
000001b0: 163c 28bd 67d1 70bd aa80 d5bc 0f96 b7bc
000001c0: 187b 253d c7b0 47bd 3fa3 82bd 64f1 083d
000001d0: fc4b bd3d 016a de3d 5480 1dbd e077 1b3d
000001e0: a629 5fbd 892d 953d 8a0a 21bc 738d 833d
000001f0: 1233 9dbc 4b21 a33d 2095 62bd a42c 2dbe
00000200: e390 40be 4cf2 24be 0be6 053e 677f f63d
00000210: c836 973d a6b7 34be 8558 d0bd 2d5f 963d
00000220: d0c5 353e 436a 863d 6b39 b6bd 29dc 2d3d
00000230: 9b81 d7bd 8c95 fe3c c7d2 56bc 2226 843d
00000240: e90d 5abc 2e50 80bc c3b3 8a3d 4929 ca3d
00000250: 6c75 91bd b665 92bc 5464 ffbc 5544 66bd
00000260: 7512 71bc 84be 163e e6fa 8c3e 7b12 23be
00000270: 76b6 41be db91 68be 5aaa e7bc 631e 753e
00000280: c5e5 b73d f80c a43d a6f6 683b 0e09 233d
00000290: d19d 393e 1f4e 65bc 284b f83c 0c23 bebc
000002a0: 0844 2f3c 8a0a 9a3c e557 a9bd 7c79 42bd
000002b0: 2187 0dbd fbc7 a0bd a9a6 0ebe 60bc cd3c
000002c0: d2b3 233d adb6 5e3d 7c2c bd3c 959b 833c
000002d0: c083 bb3d f592 723e 999f f73d 9737 2fbd
000002e0: c3f6 e2bd 540a f2bd 8d1c 953d 03bd a83d
000002f0: 5dd9 59bd 357c 8dbd 1b2a 2cbd e782 143d
00000300: e074 9c3d df1e 62bc 9b01 2fba c557 4ebb
00000310: 6456 d63d 06c1 253e fe13 b93c 6d0f 13bd
00000320: e243 423d dcc5 baba 7c14 71bd 8cb1 3bbd
00000330: 2d8f 50bb 861e 9b3c c9e9 223d b4e3 fb3c
00000340: 85e4 15be bc6b 893b 35d5 ad3c 4a65 5d3d
00000350: 77ec 7fbb afe2 18bd 8a72 3b3d 4eb2 6dbd
00000360: c69f f83c 010f e43c c75b 6abc 2aae ef3a
00000370: 8b5c 86bd b81d cfbc 142a a4bc 773f 4abd
00000380: 088e 04bd 854c 28bd 9522 f33c eb4d 95bc
00000390: 37cd 02bd cdaf d83d abd1 4bbc d928 9a3c
000003a0: a9a5 0a3c 399e 15bd 9daa 2d3d cdb8 103e
000003b0: 4cc5 ab3d 00c0 b23c 2f27 bbbd aa94 48bd
000003c0: 6621 67bc d3dc 583d 3dc5 c73d 91b7 b8bc
000003d0: a3b5 25bd 6fd7 02bb 7047 e33c f18a 093d
000003e0: b04f 85bd 6e03 83bc dfc8 23bd 60a0 f63c
000003f0: 522d ab3c 630a ce3d b5bf 3d3e 6d7b 1a3d
-0.0260098 0.067255236 0.1280179 0.10163651 0.038174752 -0.0023456914 0.03522499 0.042024523
-0.056118973 -0.024808213 0.028667942 0.049616978 -0.06596719 -0.1554252 -0.004066831 0.05102117
0.024936063 -0.058723845 -0.10234781 0.04638735 0.05620752 -0.056516822 -0.054006968 0.050305154
0.01176925 0.01871708 0.0447663 0.102730595 0.1037517 0.0059612133 0.052012604 0.03392526
0.09889599 0.055122223 -0.04263888 0.037974738 -0.05184179 -0.17987867 -0.02370765 -0.060448278
0.025391115 0.02487806 0.005044358 -0.088128135 -0.0032178683 0.025255945 -0.09919056 -0.20535137
-0.026111802 0.009745648 -0.13605027 0.021212485 0.03035579 0.045981407 0.03502825 -0.12836047
-0.12065572 0.0104831075 0.08655729 0.08141003 0.019091913 -0.088697374 -0.05033664 0.047701035
0.08575772 0.030779427 -0.08869691 -0.041138154 -0.056184456 -0.11511675 -0.06230275 -0.040918645
-0.07750787 0.0013851408 -0.08530583 0.049112286 -0.0045160055 0.05200898 0.12273595 0.06677345
0.0138076255 -0.012537075 0.049700595 0.060736887 -0.05524699 -0.015929217 -0.008957763 -0.041994177
-0.06070135 -0.0788757 0.025641864 0.0007860031 0.044714548 -0.10494725 -0.0063076275 0.07615122
0.08170416 -0.09601595 -0.051505025 0.07846187 0.111025184 0.18060671 0.10004531 -0.040006924
0.014979069 -0.050053433 0.052407123 0.0425107 -0.041072927 -0.05879345 -0.026062328 -0.02241042
0.040400594 -0.048752572 -0.06378793 0.033433333 0.092430085 0.108600624 -0.03845246 0.03795612
-0.05448308 0.07284076 -0.009829173 0.06423464 -0.019189391 0.079653345 -0.055317998 -0.1691156
-0.1880527 -0.16108054 0.13076036 0.12036019 0.073834956 -0.17648181 -0.10173134 0.07342372
0.1775124 0.065632366 -0.0889767 0.04244629 -0.10522767 0.031077169 -0.013111777 0.06452586
-0.0133089805 -0.015663233 0.06772568 0.09871156 -0.071024746 -0.017870765 -0.03117577 -0.05621751
-0.014713873 0.14721113 0.2753517 -0.15925018 -0.1891726 -0.2271189 -0.028279472 0.23937373
0.08979372 0.08010286 0.0035547405 0.039803557 0.18126608 -0.013995676 0.030309275 -0.023210071
0.010697372 0.018803854 -0.08268718 -0.047479138 -0.034552697 -0.07850643 -0.13930763 0.025114238
0.039966412 0.054373432 0.0230925 0.016065398 0.09155989 0.23688872 0.12090988 -0.042777624
-0.11082222 -0.11818376 0.07280836 0.08239176 -0.05318581 -0.06908456 -0.042032342 0.03625765
0.0763948 -0.013801306 -0.00066759594 -0.003148542 0.104656965 0.16186914 0.02259254 -0.035903383
0.04742802 -0.001424964 -0.058857426 -0.04582362 -0.003182362 0.018935453 0.039773736 0.030748226
-0.14637955 0.004193751 0.02121983 0.054051675 -0.0039050856 -0.037325557 0.04576353 -0.058031373
0.030349623 0.027839186 -0.014304108 0.0018286158 -0.0656062 -0.025282726 -0.020039596 -0.04937693
-0.032362014 -0.0410886 0.029679576 -0.01822563 -0.03193399 0.10580406 -0.012440125 0.018818306
0.008462348 -0.036527846 0.042399038 0.14132996 0.08387241 0.021820068 -0.09138333 -0.048969902
-0.014107084 0.05294497 0.09754417 -0.022548469 -0.040456425 -0.0019964834 0.027744025 0.03357977
-0.0650934 -0.015992846 -0.039986487 0.03010577 0.020895634 0.10060575 0.18530162 0.037715364

layer1.bias f4 [128]
00000000: 178c 5b3d a1b6 963d 4063 52bd a4ce 25bd
00000010: 6192 a63c 09f1 d33c 052f cdbb e4d4 56bc
00000020: fab8 08bd b60e 61bd a24f 0fbd 2f1f 4bbd
00000030: 06b5 883c 8a53 7dbb 515a 39bd 2565 bbbc
00000040: bede 003d 694b 09bd 6eda c53c 5c5a 34bc
00000050: 85d9 f43b dd86 98bd a7eb 83bd 93b5 a53c
00000060: 605f d93c 484e 623d 23fb f2bc 38c1 933c
00000070: e8d2 4bbd c547 f6bc 6c22 42bc 9dd3 4cbd
00000080: 49c5 ab3c c773 863d 9506 e7bc f71a ffbc
00000090: 435d c1bc 54b5 debb a843 983c 6e1e 60bd
000000a0: f81c aabc 397c 00bc 2ce7 373d 7a1d 9c3b
000000b0: 730a 6dbc 83e4 713d e100 313c bac3 1b3c
000000c0: 98a9 2abc 22b4 123d 8df1 d03c 2e51 bbbc
000000d0: 1691 6d3c 944b 26bd 57f6 cc3c a15e a33d
000000e0: a53d bd3c 66d5 44bc aa3c 573c 127f bcbc
000000f0: 9ac7 083c 5832 1c3d c38a 3b3d 4230 e1bc
00000100: 9b3b 4b3d 9e0a 0e3d b64e 39bd 46a1 afbd
00000110: 4115 a63b 214f 123d 1ca5 11bc 402e 36bd
00000120: 2cab 593d a9ad 42bd 822f 50bd 3cb8 9dbc
00000130: 74da 16bd 8e69 213d e995 483d 33b4 7fbc
00000140: f145 593d 3f10 183c 1234 e8bc 101d 5dbd
00000150: 1fd7 d63c 327d 823c 73a8 073b 40ba 50bd
00000160: e325 23bd 4440 373c 9c64 243d b8b1 16bd
00000170: 1c7c 8bbd 2ce6 5b3d 7662 0a3d 3f5c 86bc
00000180: 9562 f5b9 53ec c13b 0ec7 203d 6908 ee3b
00000190: c522 bc3b a20f 08bd 5f38 903d c66a ddbc
000001a0: 99f3 b23a 9730 f9bc 11dd a6bc fed9 24bc
000001b0: 7dc4 2a3d 4e59 1bbd 0ede 0b3d 8659 0b3d
000001c0: 3f88 1a3b 4d7b 5abd 20a8 14bd 1c1c f2bc
000001d0: 9a3f cf3b a353 743d 88e4 36bd 4aa7 e43c
000001e0: 3cda 4f3c 88c8 f63c ca11 ad3d c42b 8abd
000001f0: a478 ae3d feeb a33c b845 9b3c 10b0 f0bc
0.053600397 0.073590524 -0.051364183 -0.04048027 0.02033347 0.02587177 -0.0062617087 -0.0131122805
-0.033379532 -0.05494567 -0.034988053 -0.049590286 0.016687881 -0.003865453 -0.045252148 -0.022875378
0.031462424 -0.033519182 0.024152007 -0.0110078715 0.0074722194 -0.07447598 -0.064414315 0.020228183
0.026534736 0.055250436 -0.029660767 0.01803647 -0.049761683 -0.03006352 -0.011849027 -0.050006498
0.020968096 0.065650515 -0.02820138 -0.031140788 -0.023604041 -0.0067965183 0.018586949 -0.05471652
-0.020765767 -0.007842117 0.044898197 0.004764256 -0.014467823 0.059055816 0.010803432 0.009507114
-0.010416411 0.03581632 0.025505805 -0.022865858 0.014499923 -0.04059942 0.025019808 0.079770334
0.023100683 -0.012013769 0.013137022 -0.02300981 0.00834837 0.03813395 0.04578663 -0.027488831
0.04961739 0.034678094 -0.04524108 -0.08575682 0.0050684516 0.035719994 -0.008889463 -0.0444777
0.053141758 -0.047528896 -0.050826557 -0.019252889 -0.036829427 0.039407305 0.04897109 -0.015606928
0.053045217 0.009281217 -0.028345142 -0.053982794 0.026225625 0.015928838 0.0020699769 -0.05095887
-0.039831053 0.011184756 0.04013501 -0.03679058 -0.06810781 0.053686306 0.033785306 -0.016401408
-0.0004680349 0.0059180646 0.039252333 0.007264186 0.0057414495 -0.033218034 0.07042002 -0.027028453
0.001365292 -0.030418677 -0.020369085 -0.010061739 0.041691292 -0.037926964 0.034147315 0.034020923
0.0023579744 -0.053340245 -0.03629315 -0.02955442 0.0063247206 0.059650075 -0.044651538 0.0279118
0.0126863085 0.030124918 0.084506586 -0.06746629 0.08519104 0.02000999 0.018954143 -0.029380828

layer2.weight f4 [128, 128]
00000000: 0db2 e3bc 0184 bb3d b614 fdbd e1d7 4e3d
00000010: f53a adbd c955 443d fbf5 713d 55c5 e43d
00000020: cd86 55bd 957c 4dbd 7c1c 143d ae50 04bd
00000030: 722d 8ebc a06f 7bbd 3e2b b23d e0b9 47bd
00000040: 8759 293c b3aa 32bd 804a 40ba cf90 cebd
00000050: ee65 283d 6a66 91bd e257 0cbd cece ee3c
00000060: 5cfb b0bb 7860 04bd 0328 32bd 2f4e b73d
00000070: 52b7 21be 7b0f f1bc eb64 1bbd 5c2e 81bd
00000080: 6cfb df3a 0019 d13c 4c91 743d d484 8cbc
00000090: eda2 c23d de95 33be 688f 223d 955b 7abd
000000a0: bc30 933d 3a86 d93b a688 793d c246 9fbd
000000b0: 3b2c a53d f9a5 06be 98cb b6bc 6189 303b
000000c0: ddce 62bd b091 cb3d 9f49 2a3d 948a 85bc
000000d0: 815e 78bd 362c e3bc 035c 70bd 7145 0f3d
000000e0: 42a4 b6bd d2fd 89bd 7295 4dbc 6816 63bd
000000f0: ac64 513e a16a c5bb e3b2 c83d 24f2 d0bc
00000100: a78e 09bd 4154 bfbd 3289 1f3d 8aff dcbb
00000110: ece2 b6bc 2383 493c 87d7 97bd ce88 883d
00000120: 7036 443d 100c 873d bd27 c53d f44b 203d
00000130: 6f0c b3bc 1649 883d acd6 0a3e c631 963d
00000140: 17c5 c33d 7a08 58bd a27a f73d 9ccc 8abd
00000150: 23ca 263c edfe 4c3e 198a 49bd eeee 663d
00000160: 61f7 57bd b984 403d 3d94 91bd 8237 8c3c
00000170: aa4f 8e3b f8a9 c43d a27c 89bd 7109 633d
00000180: 71af c5bb 6254 5c3d b3ff ab3d d29d 38be
00000190: 2b83 c73d 6ed7 953c 9b47 8ebd 669c 90bc
000001a0: e286 94bc 9f81 9fbc c75c ad3d d5c3 aa3d
000001b0: 141f 40bd 4d18 8bbd d258 16bd 3ddb 9b3d
000001c0: 329e 003b fdc8 8c3d 4f3d 27bd 69e3 bbbd
000001d0: d21f e13c 45d7 143e fc69 c33c 27e3 d0bd
000001e0: 8872 d13c 60f2 103d 83d3 35bd a37f 68bd
000001f0: 0b7a c83d 5b93 6e3d 7401 b93d 7fc9 f33c
00000200: 81c9 443d 142e 18bd 2046 cbbd abeb 4a3d
00000210: ebe1 20bd 42bb 6dbd 46f0 44ba 6df6 b5bd
00000220: 5bd3 143c 2e75 b6bc f19d 7bbd 878e a8bc
00000230: b187 b8bd 6afd 003b 9473 a73d f8f4 553c
00000240: 2c47 c23c 5685 453d 1d7e 2cbd 6aac 963d
00000250: 9dd7 8d3c 28a0 bcb9 ee3e 80bd 430b b0bc
00000260: 2215 a93d cc77 47bd f8d9 223d d1ec 3ebd
00000270: fd15 22bd df98 25bd b3bf 233d 875e c43b
00000280: d49b 66bd ceef 443d 2c9a 0fbd 1d84 2abd
00000290: d482 5ebd 7859 8e3d 8c00 87bc 26c2 d93d
000002a0: 4c59 38bd cf13 68bd 510e cd3c 0096 d4bd
000002b0: 104a 57bc 282d d9b9 c0a7 92bb a609 e1bd
000002c0: c361 f73c 2520 93bd 5aa2 6b3d 7f51 a23c
000002d0: 53ff 493d 0cf7 263d 2ce4 6fbd c3b2 afbc
000002e0: 9fd0 f73c ad9e 3dbd 2758 93bd f581 79bd
000002f0: 60a7 afbd a7f4 3e3b 157e 2fbd 32da 1a3b
00000300: 5daa 4f3c e7b4 6c3d 4716 933d c478 e4bd
00000310: b11d 85bd 8258 85bd 9d1d 5cbd bfe8 303d
00000320: 6224 243d ffa3 98bb 7bd7 9dbd b1b1 aabd
00000330: f18b 15bd b51a 73bc 08fc 77bd 8064 81bc
00000340: bb71 a4bd 18f9 62bd 5db8 863d b243 c6bc
00000350: 28f4 fb3c 87fd 40bd 859f a9bd af68 163d
00000360: 622b f23c 9251 803d c668 cbbd b2df 2dbd
00000370: ee80 57bd 0e2c 5c3d 0a3c a6bd 4afb 533d
00000380: 7e19 cabb b814 c4bb 375e 59bd 546b f5bc
00000390: c9f2 aabd c254 a9bc b356 e7bc d931 d7bc
000003a0: 918c 91bd 4d36 80bd 2288 80bd 29a7 1dbd
000003b0: b52e eabb a058 8abd 3a34 153d 3405 9cbd
000003c0: 6998 88bd 00df 0a3c a8eb 133d 5478 163d
000003d0: b9be e93c 6004 023d 880a 7dbd 3f06 193b
000003e0: 00d8 3c3d 5f3f 16bd 9b0f 9ebc f171 1fbd
000003f0: b363 1c3d 3c1c 5b3c ed29 553d 33cd 503d
-0.027794862 0.09156037 -0.12357466 0.050498847 -0.08458511 0.047933374 0.059072476 0.111704506
-0.05213051 -0.05016764 0.036159977 -0.032303505 -0.017355654 -0.06138575 0.08699654 -0.04876125
0.010336286 -0.043619823 -0.000733532 -0.10086214 0.041112833 -0.07099612 -0.0342635 0.029151347
-0.005401058 -0.032318562 -0.04349519 0.08950459 -0.15792587 -0.029426327 -0.03793804 -0.063076705
0.0017088479 0.025524616 0.05970888 -0.017153181 0.09503732 -0.17537639 0.039687544 -0.061122496
0.0718703 0.0066383155 0.060921334 -0.07777168 0.08065077 -0.13149251 -0.022313878 0.0026937353
-0.05537306 0.09939897 0.041574117 -0.01630143 -0.060637 -0.027731042 -0.0586815 0.034978334
-0.089180484 -0.067378655 -0.012547838 -0.05544129 0.2044856 -0.006024674 0.09799745 -0.025506087
-0.03358331 -0.09342242 0.0389492 -0.00674433 -0.022325002 0.012299332 -0.074141555 0.066667184
0.04790348 0.065940976 0.0962672 0.039134935 -0.021856515 0.06654565 0.13558453 0.07333712
0.09559076 -0.05274246 0.12083937 -0.067773074 0.010180029 0.20019121 -0.049203966 0.056380205
-0.052726153 0.047001574 -0.07108352 0.017116312 0.004342993 0.096027315 -0.06713225 0.055428926
-0.006032877 0.05379141 0.0839838 -0.18028954 0.09741815 0.018291201 -0.069472514 -0.017652702
-0.018130723 -0.019470988 0.084649615 0.08338133 -0.04690464 -0.067917444 -0.0367058 0.07610176
0.0019625542 0.06874273 -0.040829953 -0.091742344 0.027480993 0.14535244 0.023854248 -0.10199576
0.025567308 0.035387397 -0.044391166 -0.05676235 0.09788903 0.058245998 0.0903348 0.029759167
0.04804373 -0.03715332 -0.09925485 0.049541157 -0.039277952 -0.05803991 -0.000751261 -0.088848926
0.009083594 -0.022272673 -0.06142992 -0.020575775 -0.09010256 0.0019682297 0.08176342 0.013058893
0.023715578 0.048222862 -0.04211246 0.07357104 0.017314726 -0.0003597748 -0.06262003 -0.021489745
0.08255984 -0.04869823 0.039758652 -0.046612564 -0.03957175 -0.040428992 0.03997774 0.005992714
-0.056300953 0.048080258 -0.03505914 -0.0416299 -0.054323986 0.069506586 -0.016479753 0.10632734
-0.045007035 -0.056659516 0.02503124 -0.10380173 -0.0131402165 -0.0004142311 -0.0044755638 -0.109881684
0.030197984 -0.071838655 0.057527877 0.019814251 0.04931576 0.040762946 -0.05856721 -0.021447545
0.030250845 -0.046293903 -0.07194548 -0.060914952 -0.08576846 0.0029137523 -0.04284485 0.002362859
0.012674895 0.05778971 0.071819834 -0.11155847 -0.06499804 -0.06511022 -0.05373918 0.043190714
0.04007376 -0.0046582217 -0.07707115 -0.08334673 -0.03651041 -0.01483791 -0.06054309 -0.015794992
-0.08029505 -0.055413336 0.06578133 -0.024202202 0.030756071 -0.047116783 -0.08282379 0.036720928
0.029561702 0.06265558 -0.09932093 -0.04244966 -0.05261319 0.05375295 -0.0811692 0.05175332
-0.0061675897 -0.005983915 -0.053068366 -0.029958405 -0.08347089 -0.020670298 -0.028239584 -0.026268886
-0.07106889 -0.06260357 -0.06275965 -0.038489494 -0.007146681 -0.06755185 0.03642676 -0.0761818
-0.06669695 0.008476019 0.03611341 0.036735848 0.028533326 0.031742454 -0.06177762 0.002334967
0.04610443 -0.03668153 -0.01929455 -0.038927022 0.038181018 0.013373431 0.052041937 0.050976943

layer2.bias f4 [128]
00000000: d844 603d 8465 ddbd d73d a53d c3f2 203e
00000010: 985a 943d dc23 75bb 5214 9b3c 57fc 203e
00000020: 3097 c8bd f267 843d 59e9 6a3c 9387 d63d
00000030: 4596 e9bd 60d6 383d c461 25bd a183 78bd
00000040: 7f7b 823d b467 c33d 6ba4 053c dace bfbd
00000050: 3e58 72bd 844f b1bd b659 e03b 4f5a 96bd
00000060: c6c3 e7bc ad02 bebd 32de 9abd 77cc afbd
00000070: c72d 62bd c1e9 973b 6ab2 f6bc 5ad2 afbd
00000080: 024a ee3d 73ba 3c3c cfde 00bc dfa8 a83b
00000090: d581 32bd f886 f73c d54a 2b3d 7355 1ebd
000000a0: aee7 833d 4ba7 4dbd 8bca 3b3d bdf8 06be
000000b0: 561f 8e3c 4741 463c 43e0 3e3c 91f8 90bd
000000c0: 3c2b 863c 329b 683d b529 fd3d 79be 16bd
000000d0: d539 e4bc e456 ef3d 0d9d 1b3e 4019 b73d
000000e0: 1dc0 b43c e928 8dbd 128f 823d 34a8 c13c
000000f0: 52d1 e3bd 2b28 673d 0159 803d 1fb5 683d
00000100: f75a 8a3d 86f4 593d 18d0 52bd 78ae 903c
00000110: ab4a 723d d1c5 09ba bf99 b13d e514 60bd
00000120: 2d8d a73d 6942 883d e1eb 553c ba6c 6bbd
00000130: b5e0 52bd 4c24 00bc 3932 a8bb b59f c1bd
00000140: fd55 203d dc57 ce3c bbe5 ccbd 62bf c23c
00000150: fc80 6dbd 7205 76bd 5985 013d 7a84 1c3b
00000160: 8029 ee3b fce6 d53b d985 a9bc a6bc 3c3d
00000170: c651 6c3d dfc7 603c a632 97bd 3faa 703d
00000180: 0d0c bb3c edd2 b8bd 5f32 a63d 828f 42bc
00000190: a6f9 f3bd 2904 913d 6c2f 02bd b643 ff3c
000001a0: 4bfc c63b dcd1 2dbd 8025 70bd 0a8c 3c3d
000001b0: d806 f93d 75c4 c4bd cdae 013a 4534 0a3d
000001c0: c4f3 6bbd 0c6d e3bd 5147 68bd 665f 4f3d
000001d0: 75dd 22bd 3fb3 08bd 70cd 873d 4a24 8dbd
000001e0: ef16 ccbd 6b58 a5bd cf1c 483b 328c 0a3c
000001f0: 5181 e9bd d230 a73d 2ac8 e63d e5af 423c
0.054753155 -0.10810378 0.08068436 0.15717606 0.07243842 -0.0037405407 0.018930588 0.1572126
-0.09794462 0.064651385 0.014337861 0.104750775 -0.11405615 0.04512632 -0.04037644 -0.060672406
0.06371211 0.09541264 0.008156876 -0.09365626 -0.059166186 -0.086577445 0.006846632 -0.07341444
-0.028291594 -0.09277854 -0.07561912 -0.085839204 -0.055219438 0.00463602 -0.030114371 -0.08585043
0.116352096 0.011519062 -0.007865622 0.005147084 -0.04358085 0.030215725 0.041819412 -0.03865571
0.06440674 -0.05020837 0.045847457 -0.13180824 0.017348927 0.012100524 0.011650148 -0.0707866
0.016378038 0.05678863 0.123614706 -0.036802743 -0.027859608 0.11686495 0.15196629 0.08940363
0.022064263 -0.068925686 0.06374945 0.023639776 -0.11123909 0.05643479 0.06266976 0.056813356
0.067556314 0.05321171 -0.051467985 0.017661318 0.05915324 -0.0005255612 0.08671903 -0.054707427
0.08181224 0.06653292 0.013056726 -0.057476737 -0.05148383 -0.007821154 -0.00513294 -0.0945429
0.039144505 0.025188379 -0.10004755 0.023772899 -0.057984337 -0.060063787 0.03162131 0.0023882673
0.007268131 0.0065277796 -0.020693706 0.046078347 0.057695173 0.013719528 -0.07382707 0.05875611
0.022832895 -0.09024606 0.08115076 -0.011875035 -0.11912851 0.070808716 -0.031783506 0.031160217
0.006072556 -0.042436466 -0.058629513 0.04603199 0.121595085 -0.09607784 0.0004947007 0.033741254
-0.05760552 -0.111047834 -0.056708638 0.05062809 -0.03976198 -0.033374067 0.06630981 -0.06891687
-0.09965312 -0.08073505 0.003053475 0.008456277 -0.11401618 0.081636086 0.11268647 0.011882757

layer3.weight f4 [10, 128]
00000000: c592 ce3d ca01 323d d77c 0e3e 7d35 a43d
00000010: de80 d63d 990d c2bd 66b5 e83d a51f ee3c
00000020: 3205 96bd d66f adbd f8ae 98bd 1f38 8abc
00000030: d1a4 04bd 82ca 1dbd 2b01 903d 4b23 53be
00000040: dedb 3ebe 140d 023e b7c5 6f3d 1e74 a8bd
00000050: 4416 8d3c 30a7 e5ba a2d6 edbd e7c2 913b
00000060: 8529 10be 1235 e63c e554 aa3d b964 e5bd
00000070: 4c1f b5bd 01bc cfbd da3b b63d ed60 35bd
00000080: 8ca4 a63c c58e 07be 5c41 ebbd 66b7 ff3d
00000090: fa22 a2be e237 55be 8555 03be 9ac6 aabd
000000a0: 9a2f 433d 175b dfbb 6303 08be 04b4 0e3e
000000b0: d9c7 e7bd b96b 073d 7ade 3bbe 7f28 bcbd
000000c0: 4896 03bd 6d65 fb3d e399 a03d 445c d5bc
000000d0: 7baf 6abe f92a 9d3d 459a 8ebe 4248 413d
000000e0: 6627 0f3e a6ca 24bd 6a23 7c3d 0ec3 33bd
000000f0: 6b2a 0abe 4a63 0abd ac53 88be 87ba fbbd
00000100: 7480 b9bd 8e1d 73bd a7c0 923d ff68 61be
00000110: b0b7 c63d cd34 2f3d f646 38bd 7fa3 613d
00000120: b731 0d3e d37d 28bd f6a6 86bd e69c b33d
00000130: c3bb 1ebd bcdf 7a3d 3fb6 963d 1546 2bbc
00000140: 56a2 c93d a7e7 da3c acbf 41ba b188 d0bd
00000150: ea08 5ebd e7f9 02bd 8b68 423e 14f5 01be
00000160: 6c07 f83d 46ed 083e 4d6b 673d 4219 94bc
00000170: 5e6f 29be 81c2 2fbe 6b39 cf3d e4fd bd3b
00000180: 2e02 c53b e894 58bd e508 23be 97ea b5bd
00000190: d4b2 6bbe efde 823c 79df 85bc b148 f33d
000001a0: a561 95bc e112 ea3c f9b8 81be eec5 9d3d
000001b0: c8af 993d d714 10be 5c5b b0bd fec2 cc3d
000001c0: e252 26be e4b8 98bd 60cf 7b3d 0dd4 68be
000001d0: 3bd3 0bbd a87e 88bd d5a6 cfbd b322 123d
000001e0: 7549 91bc 3aa1 3cbd 2a06 513d 5c91 6dbd
000001f0: c653 cebd ae1b 4bbe a769 4f3c 6926 5cbe
00000200: d81e f3bd 0bb5 84bd f4dc 57bc e5a2 2ebd
00000210: 0d24 21be 6e98 033e a0ff c83d 10ae 2ebe
00000220: c809 7bbd 2764 013e 8ab3 8bbe a25e fe3d
00000230: 07f3 a7bd 05f3 883b 0d92 dbbd 1517 cb3d
00000240: 2ea0 a53d bc18 c7bd bd31 293e 0a05 3fbe
00000250: 031b 973d 3d68 96bc 7fcc f1bd eeba 28bd
00000260: e41b 6e3c a822 113d e3b2 693d 6b51 db3d
00000270: 9b7e 083e cf61 193d 1e2e 8dbc 472c 2dbd
00000280: c323 543d 83b7 bc3d 68e3 2fbe 9c6f 43be
00000290: dd65 c33c 6c2c a13c 6f87 eb3d 14f4 46bd
000002a0: 658d f53d b803 f93a 77e5 40be a7a5 5d3c
000002b0: e135 53bd 4233 61be e599 e93d 352e ae3d
000002c0: 9bb2 bc3d ad82 17be dfcd 85be ad9f 88bd
000002d0: 32df 12be 484a 34be 43d6 9ebd 2431 963d
000002e0: f52b 4c3d 08f7 95bc 5c84 1cbc c8fe 71bd
000002f0: 62d5 1dbd 4fb3 b7bc b5bb ac3d 4d1c 473d
00000300: 656f 253e 46d0 97bc 7d29 4cbd 07c2 603d
00000310: 5a9b bbbb 9e6c 46bd 467a 223e 9aaf b2bd
00000320: a5fb f3bc 09da 803d 3f10 5dbd 8445 21be
00000330: efb8 9e3c a338 48be 3ddf 03be d014 d2bd
00000340: 8ed2 cf3d 45b6 91be 070e 4f3e ecdd e0bd
00000350: 7492 46be a167 78bc 24bb a8bb c451 0fbe
00000360: 606f 3bbe 8d5d a43b d60f 9bbc fa6a 933d
00000370: 80c9 af3d 6e04 a9bd 6802 163c 537e cb3c
00000380: 2455 27be ebba 633d 483d 33be e0a3 95bd
00000390: f563 343b e8e8 c13d ec44 943d 3dbc bd3d
000003a0: 92f9 75bc 1b46 0f3d 1cd4 a7bb c20c e2bd
000003b0: 98c4 d6bd f845 1dbd 99fe 05be be4a 91bc
000003c0: 7751 c43d 10b5 0fbe 0730 973c 1936 d93d
000003d0: 44c6 1a3d 4501 3ebc f7cc b4bd 2507 34bd
000003e0: 1330 c9bd cfdc 5fbd a1cb 1dbe aed2 84be
000003f0: ca3b f9bd d3d0 ab3b 79a4 47bd 5248 f53d
0.10086588 0.043458737 0.1391481 0.080180146 0.10473798 -0.0947525 0.11362724 0.029067824
-0.0732521 -0.08468597 -0.07455248 -0.016872464 -0.032383744 -0.038523205 0.07031473 -0.20618932
-0.1863856 0.12700301 0.058538165 -0.082252726 0.017222531 -0.0017521139 -0.116132036 0.004448283
-0.14078338 0.028101478 0.083169736 -0.11200852 -0.0884386 -0.10143281 0.088981345 -0.04428189
0.020342134 -0.13238056 -0.11487076 0.12486152 -0.3166731 -0.20822099 -0.12825592 -0.083386615
0.04765282 -0.0068162787 -0.13282542 0.13935858 -0.11317415 0.033061717 -0.18346587 -0.091874115
-0.03212574 0.12275205 0.078418516 -0.026044972 -0.22918503 0.07674212 -0.27852073 0.04718805
0.13979873 -0.040232323 0.06155721 -0.04388719 -0.13492744 -0.033786096 -0.26626337 -0.12291437
-0.090577036 -0.059354357 0.07165652 -0.22012709 0.09703004 0.042774964 -0.04498955 0.055087563
0.13788496 -0.04113562 -0.06574814 0.087701604 -0.038753282 0.061248526 0.073589794 -0.010453721
0.09845416 0.026721789 -0.0007390927 -0.10182322 -0.05420772 -0.031976607 0.18985192 -0.12691146
0.121107906 0.13371763 0.056498814 -0.01807845 -0.1654639 -0.17164041 0.101183735 0.0057980884
0.0060122227 -0.052876383 -0.15921362 -0.08882635 -0.23017436 0.015975444 -0.016341912 0.11879099
-0.018235037 0.028573455 -0.25336435 0.07703768 0.07504231 -0.1407045 -0.086111754 0.09998129
-0.16242555 -0.0745714 0.061477065 -0.22737141 -0.034136992 -0.06664783 -0.101392426 0.035677623
-0.017735222 -0.046052195 0.05103127 -0.057999954 -0.10074572 -0.19834778 0.012659467 -0.21499027
-0.11871117 -0.06479844 -0.013175238 -0.042635817 -0.15736409 0.12851116 0.098143816 -0.17058587
-0.061288625 0.12635861 -0.27285415 0.124203935 -0.08200651 0.004179361 -0.10721216 0.09916512
0.080871925 -0.097215146 0.1652288 -0.18654266 0.07378199 -0.018360252 -0.11806583 -0.041193895
0.014533017 0.03543344 0.057055365 0.107088886 0.13329546 0.037446793 -0.017233904 -0.042278554
0.051791918 0.092146896 -0.17176592 -0.19085544 0.023852283 0.019674502 0.11500441 -0.048572615
0.119898595 0.0018998301 -0.18837534 0.013528264 -0.051565055 -0.2199221 0.11406306 0.08504907
0.09213754 -0.14795943 -0.2613363 -0.06671081 -0.14342955 -0.17606461 -0.07755711 0.073335916
0.04984661 -0.01830627 -0.009553041 -0.05908087 -0.038533576 -0.022424368 0.0843424 0.048610974
0.16155775 -0.01853193 -0.049844254 0.05487254 -0.0057253065 -0.04844343 0.15866956 -0.087248996
-0.02978308 0.06291587 -0.05397057 -0.15749174 0.019375293 -0.19552855 -0.12878127 -0.10257876
0.10147582 -0.28459373 0.20220195 -0.10979828 -0.19391805 -0.015161426 -0.005149262 -0.13996035
-0.18304205 0.005016035 -0.01892845 0.071981385 0.08583355 -0.08252798 0.009155847 0.02484051
-0.16341072 0.05559818 -0.17503846 -0.07306647 0.00275254 0.094682515 0.07239708 0.09264419
-0.0150131155 0.034978967 -0.005121721 -0.110375896 -0.10486716 -0.038396806 -0.13085403 -0.017735835
0.09585851 -0.14033914 0.018455518 0.106060214 0.037786737 -0.011596982 -0.088281564 -0.043952126
-0.098236226 -0.05465394 -0.1540971 -0.25941986 -0.12169607 0.0052433996 -0.048740838 0.11976685

layer3.bias f4 [10]
00000000: cdad a7bd bcfb e2bc e59d c73c e4d3 a03d
00000010: 4699 eabd 581c 1abd 3bc9 bebd 0819 3fbd
00000020: e409 113d ec9e 603d
-0.08187447 -0.027707927 0.024367282 0.07852915 -0.11455016 -0.037624687 -0.093157254 -0.04665473
0.035409823 0.05483906
